…
Skipping registering GPU devices...
2021-12-04 22:36:28.238584: I tensorflow/core/platform/cpu_feature_guard.cc:151] This TensorFlow binary is optimized with oneAPI Deep Neural Network Library (oneDNN) to use the following CPU instructions in performance-critical operations:  AVX AVX2
To enable them in other operations, rebuild TensorFlow with the appropriate compiler flags.
Model: "sequential"
_________________________________________________________________
 Layer (type)                Output Shape              Param #
=================================================================
 conv2d (Conv2D)             (None, 32, 32, 32)        896

 activation (Activation)     (None, 32, 32, 32)        0

 conv2d_1 (Conv2D)           (None, 32, 32, 32)        9248

 activation_1 (Activation)   (None, 32, 32, 32)        0

 max_pooling2d (MaxPooling2D  (None, 16, 16, 32)       0
 )

 dropout (Dropout)           (None, 16, 16, 32)        0

 conv2d_2 (Conv2D)           (None, 16, 16, 64)        18496

 activation_2 (Activation)   (None, 16, 16, 64)        0

 conv2d_3 (Conv2D)           (None, 16, 16, 64)        36928

 activation_3 (Activation)   (None, 16, 16, 64)        0

 max_pooling2d_1 (MaxPooling  (None, 8, 8, 64)         0
 2D)

 dropout_1 (Dropout)         (None, 8, 8, 64)          0

 conv2d_4 (Conv2D)           (None, 8, 8, 128)         73856

 activation_4 (Activation)   (None, 8, 8, 128)         0

 conv2d_5 (Conv2D)           (None, 8, 8, 128)         147584

 activation_5 (Activation)   (None, 8, 8, 128)         0

 max_pooling2d_2 (MaxPooling  (None, 4, 4, 128)        0
 2D)

 dropout_2 (Dropout)         (None, 4, 4, 128)         0

 flatten (Flatten)           (None, 2048)              0

 dense (Dense)               (None, 1024)              2098176

 activation_6 (Activation)   (None, 1024)              0

 dropout_3 (Dropout)         (None, 1024)              0

 dense_1 (Dense)             (None, 10)                10250

=================================================================
Total params: 2,395,434
Trainable params: 2,395,434
Non-trainable params: 0
_________________________________________________________________
Epoch 1/50
781/781 [==============================] - 91s 115ms/step - loss: 1.6406 - accuracy: 0.3927 - val_loss: 1.2588 - val_accuracy: 0.5452
Epoch 2/50
781/781 [==============================] - 92s 118ms/step - loss: 1.1971 - accuracy: 0.5669 - val_loss: 1.0175 - val_accuracy: 0.6384
…
